…
start at: 2022-07-23 15:34:53
This is the Attack Federated Learning
Only generator is been averaged
Namespace(attack=False, avg_disc=False, resume=False, outlier_detect=False, load_path='/scratch/st-xli135-1/rjin02/fed_GAN_256/wgan/fed_trans_16_256_attack_dep1', lr=0.0002, img_size=256, batch=32, n_epochs=200, gen_iters=1, data_root='/scratch/st-xli135-1/rjin02/DataSets/isic_fin/train', workers=1, seed=999, num_clients=4, img_resolution=256, save_path='/scratch/st-xli135-1/rjin02/Release/attack/cnn', poison_size=16, decay=0.9, warmup=10)
Device: cuda:0
Random Seed:  999
Discriminator(
  (main): Sequential(
    (0): Conv2d(3, 64, kernel_size=(4, 4), stride=(2, 2), padding=(1, 1), bias=False)
    (1): LeakyReLU(negative_slope=0.2, inplace=True)
    (2): Conv2d(64, 128, kernel_size=(4, 4), stride=(2, 2), padding=(1, 1), bias=False)
    (3): BatchNorm2d(128, eps=1e-05, momentum=0.1, affine=True, track_running_stats=True)
    (4): LeakyReLU(negative_slope=0.2, inplace=True)
    (5): Conv2d(128, 256, kernel_size=(4, 4), stride=(2, 2), padding=(1, 1), bias=False)
    (6): BatchNorm2d(256, eps=1e-05, momentum=0.1, affine=True, track_running_stats=True)
    (7): LeakyReLU(negative_slope=0.2, inplace=True)
    (8): Conv2d(256, 512, kernel_size=(4, 4), stride=(2, 2), padding=(1, 1), bias=False)
    (9): BatchNorm2d(512, eps=1e-05, momentum=0.1, affine=True, track_running_stats=True)
    (10): LeakyReLU(negative_slope=0.2, inplace=True)
    (11): Conv2d(512, 1024, kernel_size=(4, 4), stride=(2, 2), padding=(1, 1), bias=False)
    (12): BatchNorm2d(1024, eps=1e-05, momentum=0.1, affine=True, track_running_stats=True)
    (13): LeakyReLU(negative_slope=0.2, inplace=True)
    (14): Conv2d(1024, 2048, kernel_size=(4, 4), stride=(2, 2), padding=(1, 1), bias=False)
    (15): BatchNorm2d(2048, eps=1e-05, momentum=0.1, affine=True, track_running_stats=True)
    (16): LeakyReLU(negative_slope=0.2, inplace=True)
    (17): Conv2d(2048, 1, kernel_size=(4, 4), stride=(1, 1), bias=False)
    (18): Sigmoid()
  )
)
============ Train epoch 0 ============
Setting up PyTorch plugin "bias_act_plugin"... Done.
Setting up PyTorch plugin "upfirdn2d_plugin"... Done.
Loss D:  0.0007301432779058814
Loss G:  10.76072883605957
Loss D:  0.00019652170885819942
Loss G:  11.805671691894531
Loss D:  0.047967951744794846
Loss G:  9.523011207580566
…
